…
cuda : True
early_stop_count : 30
vocab_size : None
remove_slot_value : False
encoder_layer_num : 3
beam_search : False
beam_size : 10
beam_len_bonus : 0.5
teacher_force : 50
glove_path : ./data/glove.840B.300d.txt
model_path : ./models/controlled_VQVAE_e2e_LSTM_VCBTrue_CB512EL3BS128CC0d95Stop.pkl
result_path : ./results/controlled_VQVAE_e2e_LSTM_VCBTrue_CB512EL3BS128CC0d95StopTMT82.csv
vocab_emb : ./vocabs/embedding_e2e.npy
vocab_path : ./vocabs/e2e.p

DEBUG:root:Device: 0
INFO:root:total trainable params: 32942843
INFO:root:Controlled_VQVAE(
  (vae_encoder): LSTMDynamicEncoder(
    (embedding): Embedding(2949, 300)
    (lstm): LSTM(300, 300, num_layers=3, bidirectional=True)
  )
  (vocab_vq_vae): Vocab_VectorQuantizer(
    (_embedding): Embedding(2949, 300)
  )
  (encoder): LSTMDynamicEncoder(
    (embedding): Embedding(2949, 300)
    (lstm): LSTM(300, 300, num_layers=3, bidirectional=True)
  )
  (act_vq_vae): VectorQuantizer(
    (_embedding): Embedding(512, 300)
  )
  (value_vq_vae): Vocab_VectorQuantizer(
    (_embedding): Embedding(2949, 300)
  )
  (decoder): Attn_RNN_Decoder(
    (emb): Embedding(2949, 300)
    (a_attn): Attn(
      (attn): Linear(in_features=1200, out_features=600, bias=True)
    )
    (p_attn): Attn(
      (attn): Linear(in_features=1200, out_features=600, bias=True)
    )
    (rnn): LSTM(1500, 600)
    (emb_proj): Linear(in_features=600, out_features=300, bias=True)
    (proj): Linear(in_features=300, out_features=2949, bias=True)
  )
  (act_predictor): MultiLabel_Classification(
    (linear1): Linear(in_features=300, out_features=150, bias=True)
    (linear2): Linear(in_features=150, out_features=8, bias=True)
  )
  (act_mlp): MLP(
    (linear1): Linear(in_features=600, out_features=1200, bias=True)
    (linear2): Linear(in_features=1200, out_features=300, bias=True)
  )
  (value_predictor): ModuleList(
    (0): MultiClass_Classification(
      (linear1): Linear(in_features=300, out_features=150, bias=True)
      (linear2): Linear(in_features=150, out_features=3, bias=True)
    )
    (1): MultiClass_Classification(
      (linear1): Linear(in_features=300, out_features=150, bias=True)
      (linear2): Linear(in_features=150, out_features=7, bias=True)
    )
    (2): MultiClass_Classification(
      (linear1): Linear(in_features=300, out_features=150, bias=True)
      (linear2): Linear(in_features=150, out_features=4, bias=True)
    )
    (3): MultiClass_Classification(
      (linear1): Linear(in_features=300, out_features=150, bias=True)
      (linear2): Linear(in_features=150, out_features=3, bias=True)
    )
    (4): MultiClass_Classification(
      (linear1): Linear(in_features=300, out_features=150, bias=True)
      (linear2): Linear(in_features=150, out_features=8, bias=True)
    )
    (5): MultiClass_Classification(
      (linear1): Linear(in_features=300, out_features=150, bias=True)
      (linear2): Linear(in_features=150, out_features=2, bias=True)
    )
    (6): MultiClass_Classification(
      (linear1): Linear(in_features=300, out_features=150, bias=True)
      (linear2): Linear(in_features=150, out_features=2, bias=True)
    )
    (7): MultiClass_Classification(
      (linear1): Linear(in_features=300, out_features=150, bias=True)
      (linear2): Linear(in_features=150, out_features=7, bias=True)
    )
  )
  (value_mlp): ModuleList(
    (0): MLP(
      (linear1): Linear(in_features=600, out_features=1200, bias=True)
      (linear2): Linear(in_features=1200, out_features=300, bias=True)
    )
    (1): MLP(
      (linear1): Linear(in_features=600, out_features=1200, bias=True)
      (linear2): Linear(in_features=1200, out_features=300, bias=True)
    )
    (2): MLP(
      (linear1): Linear(in_features=600, out_features=1200, bias=True)
      (linear2): Linear(in_features=1200, out_features=300, bias=True)
    )
    (3): MLP(
      (linear1): Linear(in_features=600, out_features=1200, bias=True)
      (linear2): Linear(in_features=1200, out_features=300, bias=True)
    )
    (4): MLP(
      (linear1): Linear(in_features=600, out_features=1200, bias=True)
      (linear2): Linear(in_features=1200, out_features=300, bias=True)
    )
    (5): MLP(
      (linear1): Linear(in_features=600, out_features=1200, bias=True)
      (linear2): Linear(in_features=1200, out_features=300, bias=True)
    )
    (6): MLP(
      (linear1): Linear(in_features=600, out_features=1200, bias=True)
      (linear2): Linear(in_features=1200, out_features=300, bias=True)
    )
    (7): MLP(
      (linear1): Linear(in_features=600, out_features=1200, bias=True)
      (linear2): Linear(in_features=1200, out_features=300, bias=True)
    )
  )
  (dec_loss): NLLLoss()
)
INFO:root:embedding.  mean: 0.000694  std 0.504608
DEBUG:root:phase focus 
DEBUG:root:bucket 1 instance 42061
DEBUG:root:loss:31.535873413085938 reconloss:8.001482009887695 actloss:0.6952781081199646 otherloss:11.09744644165039 actvqloss:0.002811439335346222 othervqloss:11.738855361938477 grad:6.493997331827927
DEBUG:root:loss:28.920246124267578 reconloss:7.565270900726318 actloss:0.692115843296051 otherloss:10.3129243850708 actvqloss:0.01131808664649725 othervqloss:10.338614463806152 grad:4.974833220563423
…
