…
cuda : True
early_stop_count : 30
vocab_size : None
remove_slot_value : False
encoder_layer_num : 3
beam_search : False
beam_size : 10
beam_len_bonus : 0.5
teacher_force : 50
glove_path : ./data/glove.840B.300d.txt
model_path : ./models/controlled_VQVAE_e2e_LSTM_VCBTrue_CB512EL3BS128CC0d25Stop.pkl
result_path : ./results/controlled_VQVAE_e2e_LSTM_VCBTrue_CB512EL3BS128CC0d25StopTMT82.csv
vocab_emb : ./vocabs/embedding_e2e.npy
vocab_path : ./vocabs/e2e.p

DEBUG:root:Device: 1
INFO:root:total trainable params: 32942843
INFO:root:Controlled_VQVAE(
  (vae_encoder): LSTMDynamicEncoder(
    (embedding): Embedding(2949, 300)
    (lstm): LSTM(300, 300, num_layers=3, bidirectional=True)
  )
  (vocab_vq_vae): Vocab_VectorQuantizer(
    (_embedding): Embedding(2949, 300)
  )
  (encoder): LSTMDynamicEncoder(
    (embedding): Embedding(2949, 300)
    (lstm): LSTM(300, 300, num_layers=3, bidirectional=True)
  )
  (act_vq_vae): VectorQuantizer(
    (_embedding): Embedding(512, 300)
  )
  (value_vq_vae): Vocab_VectorQuantizer(
    (_embedding): Embedding(2949, 300)
  )
  (decoder): Attn_RNN_Decoder(
    (embedding): Embedding(2949, 300)
    (a_attn): Attn(
      (attn): Linear(in_features=1200, out_features=600, bias=True)
    )
    (p_attn): Attn(
      (attn): Linear(in_features=1200, out_features=600, bias=True)
    )
    (rnn): LSTM(1500, 600)
    (emb_proj): Linear(in_features=600, out_features=300, bias=True)
    (proj): Linear(in_features=300, out_features=2949, bias=True)
  )
  (act_predictor): MultiLabel_Classification(
    (linear1): Linear(in_features=300, out_features=150, bias=True)
    (linear2): Linear(in_features=150, out_features=8, bias=True)
  )
  (act_mlp): MLP(
    (linear1): Linear(in_features=600, out_features=1200, bias=True)
    (linear2): Linear(in_features=1200, out_features=300, bias=True)
  )
  (value_predictor): ModuleList(
    (0): MultiClass_Classification(
      (linear1): Linear(in_features=300, out_features=150, bias=True)
      (linear2): Linear(in_features=150, out_features=3, bias=True)
    )
    (1): MultiClass_Classification(
      (linear1): Linear(in_features=300, out_features=150, bias=True)
      (linear2): Linear(in_features=150, out_features=7, bias=True)
    )
    (2): MultiClass_Classification(
      (linear1): Linear(in_features=300, out_features=150, bias=True)
      (linear2): Linear(in_features=150, out_features=4, bias=True)
    )
    (3): MultiClass_Classification(
      (linear1): Linear(in_features=300, out_features=150, bias=True)
      (linear2): Linear(in_features=150, out_features=3, bias=True)
    )
    (4): MultiClass_Classification(
      (linear1): Linear(in_features=300, out_features=150, bias=True)
      (linear2): Linear(in_features=150, out_features=8, bias=True)
    )
    (5): MultiClass_Classification(
      (linear1): Linear(in_features=300, out_features=150, bias=True)
      (linear2): Linear(in_features=150, out_features=2, bias=True)
    )
    (6): MultiClass_Classification(
      (linear1): Linear(in_features=300, out_features=150, bias=True)
      (linear2): Linear(in_features=150, out_features=2, bias=True)
    )
    (7): MultiClass_Classification(
      (linear1): Linear(in_features=300, out_features=150, bias=True)
      (linear2): Linear(in_features=150, out_features=7, bias=True)
    )
  )
  (value_mlp): ModuleList(
    (0): MLP(
      (linear1): Linear(in_features=600, out_features=1200, bias=True)
      (linear2): Linear(in_features=1200, out_features=300, bias=True)
    )
    (1): MLP(
      (linear1): Linear(in_features=600, out_features=1200, bias=True)
      (linear2): Linear(in_features=1200, out_features=300, bias=True)
    )
    (2): MLP(
      (linear1): Linear(in_features=600, out_features=1200, bias=True)
      (linear2): Linear(in_features=1200, out_features=300, bias=True)
    )
    (3): MLP(
      (linear1): Linear(in_features=600, out_features=1200, bias=True)
      (linear2): Linear(in_features=1200, out_features=300, bias=True)
    )
    (4): MLP(
      (linear1): Linear(in_features=600, out_features=1200, bias=True)
      (linear2): Linear(in_features=1200, out_features=300, bias=True)
    )
    (5): MLP(
      (linear1): Linear(in_features=600, out_features=1200, bias=True)
      (linear2): Linear(in_features=1200, out_features=300, bias=True)
    )
    (6): MLP(
      (linear1): Linear(in_features=600, out_features=1200, bias=True)
      (linear2): Linear(in_features=1200, out_features=300, bias=True)
    )
    (7): MLP(
      (linear1): Linear(in_features=600, out_features=1200, bias=True)
      (linear2): Linear(in_features=1200, out_features=300, bias=True)
    )
  )
  (dec_loss): NLLLoss()
)
INFO:root:embedding.  mean: 0.000694  std 0.504608
DEBUG:root:phase focus 
DEBUG:root:bucket 1 instance 42061
DEBUG:root:loss:30.88003158569336 reconloss:8.000405311584473 actloss:0.6952760815620422 otherloss:11.128456115722656 actvqloss:0.0011953687062487006 othervqloss:7.528188705444336 grad:7.364411528654761
DEBUG:root:loss:30.210792541503906 reconloss:7.961829662322998 actloss:0.6921168565750122 otherloss:10.287270545959473 actvqloss:0.00489795533940196 othervqloss:7.18922233581543 grad:5.320312125515497
…
