…
dropout_rate : 0.0
epoch_num : 100
cuda : True
early_stop_count : 30
vocab_size : None
remove_slot_value : False
encoder_layer_num : 3
beam_search : False
beam_size : 10
beam_len_bonus : 0.5
teacher_force : 50
glove_path : ./data/glove.840B.300d.txt
model_path : ./models/controlled_VQVAE_e2e_LSTM_CB2046EL3CC0d95.pkl
result_path : ./results/controlled_VQVAE_e2e_LSTM_CB2046EL3CC0d95TMT82.csv
vocab_emb : ./vocabs/embedding_e2e.npy
vocab_path : ./vocabs/e2e.p

DEBUG:root:Device: 0
INFO:root:total trainable params: 23589782
INFO:root:Controlled_VQVAE(
  (vae_encoder): LSTMDynamicEncoder(
    (embedding): Embedding(3024, 300)
    (lstm): LSTM(300, 300, num_layers=3, bidirectional=True)
  )
  (vocab_vq_vae): Vocab_VectorQuantizer(
    (embedding): Embedding(3024, 300)
  )
  (encoder): LSTMDynamicEncoder(
    (embedding): Embedding(3024, 300)
    (lstm): LSTM(300, 300, num_layers=3, bidirectional=True)
  )
  (act_vq_vae): VectorQuantizer(
    (_embedding): Embedding(2046, 300)
  )
  (decoder): Attn_RNN_Decoder(
    (emb): Embedding(3024, 300)
    (a_attn): Attn(
      (attn): Linear(in_features=1200, out_features=600, bias=True)
    )
    (p_attn): Attn(
      (attn): Linear(in_features=1200, out_features=600, bias=True)
    )
    (rnn): LSTM(1500, 600)
    (emb_proj): Linear(in_features=600, out_features=300, bias=True)
    (proj): Linear(in_features=300, out_features=3024, bias=True)
  )
  (act_predictor): MultiLabel_Classification(
    (linear1): Linear(in_features=300, out_features=150, bias=True)
    (linear2): Linear(in_features=150, out_features=8, bias=True)
  )
  (act_mlp): MLP(
    (linear1): Linear(in_features=600, out_features=1200, bias=True)
    (linear2): Linear(in_features=1200, out_features=300, bias=True)
  )
  (dec_loss): NLLLoss()
)
DEBUG:root:bucket 1 instance 42061
DEBUG:root:loss:2.861560344696045 reconloss:1.9628331661224365 actloss:0.2335420697927475  actvqloss:0.5606321096420288 grad:0.41144309541124446
DEBUG:root:loss:3.18294620513916 reconloss:2.293217420578003 actloss:0.24697300791740417  actvqloss:0.5464239120483398 grad:0.3759189182755401
DEBUG:root:loss:2.6451425552368164 reconloss:1.785088062286377 actloss:0.2526397407054901  actvqloss:0.5031386017799377 grad:0.3744311087947534
…
