…
lr : 0.001
lr_decay : 1.0
batch_size : 128
dropout_rate : 0.0
epoch_num : 1
cuda : True
early_stop_count : 30
vocab_size : None
remove_slot_value : False
encoder_layer_num : 1
beam_search : False
beam_size : 10
beam_len_bonus : 0.5
teacher_force : 50
glove_path : ./data/glove.840B.300d.txt
model_path : ./models/controlled_CVAE_e2e_EL1.pkl
result_path : ./results/controlled_CVAE_e2e_EL1TMT82.csv
vocab_emb : ./vocabs/embedding_e2e.npy
vocab_path : ./vocabs/e2e.p

DEBUG:root:Device: 2
INFO:root:total trainable params: 6280122
INFO:root:Controlled_CVAE(
  (encoder): SimpleDynamicEncoder(
    (embedding): Embedding(3024, 300)
    (gru): GRU(300, 300, bidirectional=True)
  )
  (vocab_vq_vae): Vocab_VectorQuantizer(
    (embedding): Embedding(3024, 300)
  )
  (vae): VAE(
    (fc1): Linear(in_features=379, out_features=379, bias=True)
    (fc21): Linear(in_features=379, out_features=300, bias=True)
    (fc22): Linear(in_features=379, out_features=300, bias=True)
    (fc3): Linear(in_features=300, out_features=379, bias=True)
    (fc4): Linear(in_features=379, out_features=379, bias=True)
  )
  (decoder): Condition_RNN_Decoder(
    (emb): Embedding(3024, 300)
    (rnn): GRU(379, 300)
    (emb_proj): Linear(in_features=300, out_features=300, bias=True)
    (proj): Linear(in_features=300, out_features=3024, bias=True)
  )
  (act_predictor): MultiLabel_Classification(
    (linear1): Linear(in_features=300, out_features=150, bias=True)
    (linear2): Linear(in_features=150, out_features=79, bias=True)
  )
  (act_mlp): MLP(
    (linear1): Linear(in_features=600, out_features=1200, bias=True)
    (linear2): Linear(in_features=1200, out_features=300, bias=True)
  )
  (dec_loss): NLLLoss()
)
INFO:root:embedding.  mean: 0.000241  std 0.511211
DEBUG:root:bucket 1 instance 42061
DEBUG:root:loss:8.869344711303711 reconloss:7.997044563293457 KLD:0.002000595908612013 actloss:0.6951767802238464 vocabvqloss0.17512211203575134 grad:0.35358734613375176
DEBUG:root:loss:8.73964786529541 reconloss:7.913453102111816 KLD:0.0012187156826257706 actloss:0.6768646240234375 vocabvqloss0.14811113476753235 grad:0.3881792010128366
…
