…
dropout_rate : 0.0
epoch_num : 100
cuda : True
early_stop_count : 30
vocab_size : None
remove_slot_value : False
encoder_layer_num : 3
beam_search : False
beam_size : 10
beam_len_bonus : 0.5
teacher_force : 50
glove_path : ./data/glove.840B.300d.txt
model_path : ./models/controlled_VQVAE_e2e_LSTM_CB2046EL3CC0d25.pkl
result_path : ./results/controlled_VQVAE_e2e_LSTM_CB2046EL3CC0d25TMT82.csv
vocab_emb : ./vocabs/embedding_e2e.npy
vocab_path : ./vocabs/e2e.p

DEBUG:root:Device: 0
INFO:root:total trainable params: 23589782
INFO:root:Controlled_VQVAE(
  (vae_encoder): LSTMDynamicEncoder(
    (embedding): Embedding(3024, 300)
    (lstm): LSTM(300, 300, num_layers=3, bidirectional=True)
  )
  (vocab_vq_vae): Vocab_VectorQuantizer(
    (embedding): Embedding(3024, 300)
  )
  (encoder): LSTMDynamicEncoder(
    (embedding): Embedding(3024, 300)
    (lstm): LSTM(300, 300, num_layers=3, bidirectional=True)
  )
  (act_vq_vae): VectorQuantizer(
    (_embedding): Embedding(2046, 300)
  )
  (decoder): Attn_RNN_Decoder(
    (emb): Embedding(3024, 300)
    (a_attn): Attn(
      (attn): Linear(in_features=1200, out_features=600, bias=True)
    )
    (p_attn): Attn(
      (attn): Linear(in_features=1200, out_features=600, bias=True)
    )
    (rnn): LSTM(1500, 600)
    (emb_proj): Linear(in_features=600, out_features=300, bias=True)
    (proj): Linear(in_features=300, out_features=3024, bias=True)
  )
  (act_predictor): MultiLabel_Classification(
    (linear1): Linear(in_features=300, out_features=150, bias=True)
    (linear2): Linear(in_features=150, out_features=8, bias=True)
  )
  (act_mlp): MLP(
    (linear1): Linear(in_features=600, out_features=1200, bias=True)
    (linear2): Linear(in_features=1200, out_features=300, bias=True)
  )
  (dec_loss): NLLLoss()
)
INFO:root:embedding.  mean: 0.000241  std 0.511211
DEBUG:root:bucket 1 instance 42061
DEBUG:root:loss:10.321892738342285 reconloss:8.026914596557617 actloss:0.6914446353912354  actvqloss:0.0019298105034977198 grad:0.33878855439726185
DEBUG:root:loss:10.161999702453613 reconloss:7.946579456329346 actloss:0.6910508275032043  actvqloss:0.007155486382544041 grad:0.39976919398798794
…
