…
remove_slot_value : True
encoder_layer_num : 1
beam_search : False
beam_size : 10
beam_len_bonus : 0.5
teacher_force : 50
slot_max_ts : 29
text_max_ts : 62
personality_size : 5
act_size : 8
glove_path : ./data/glove.840B.300d.txt
condition_size : 261
model_path : ./models/controlled_CVAE_personage_delex_EL1.pkl
result_path : ./results/controlled_CVAE_personage_delex_EL1TMT62.csv
vocab_emb : ./vocabs/embedding_personage_delex.npy
vocab_path : ./vocabs/personage_delex.p

DEBUG:root:Device: 2
INFO:root:total trainable params: 5520886
INFO:root:Controlled_CVAE(
  (vocab_vq_vae): Vocab_VectorQuantizer(
    (embedding): Embedding(198, 300)
  )
  (encoder): SimpleDynamicEncoder(
    (embedding): Embedding(198, 300)
    (gru): GRU(300, 300, bidirectional=True)
  )
  (vae): VAE(
    (fc1): Linear(in_features=561, out_features=561, bias=True)
    (fc21): Linear(in_features=561, out_features=300, bias=True)
    (fc22): Linear(in_features=561, out_features=300, bias=True)
    (fc3): Linear(in_features=300, out_features=561, bias=True)
    (fc4): Linear(in_features=561, out_features=561, bias=True)
  )
  (decoder): Condition_RNN_Decoder(
    (emb): Embedding(198, 300)
    (rnn): GRU(561, 300)
    (emb_proj): Linear(in_features=300, out_features=300, bias=True)
    (proj): Linear(in_features=300, out_features=198, bias=True)
  )
  (act_predictor): MultiLabel_Classification(
    (linear1): Linear(in_features=300, out_features=150, bias=True)
    (linear2): Linear(in_features=150, out_features=8, bias=True)
  )
  (personality_predictor): MultiClass_Classification(
    (linear1): Linear(in_features=300, out_features=150, bias=True)
    (linear2): Linear(in_features=150, out_features=5, bias=True)
  )
  (act_mlp): MLP(
    (linear1): Linear(in_features=600, out_features=1200, bias=True)
    (linear2): Linear(in_features=1200, out_features=300, bias=True)
  )
  (personality_mlp): MLP(
    (linear1): Linear(in_features=600, out_features=1200, bias=True)
    (linear2): Linear(in_features=1200, out_features=300, bias=True)
  )
  (dec_loss): NLLLoss()
)
INFO:root:embedding.  mean: -0.002344  std 0.627239
DEBUG:root:bucket 1 instance 79879
DEBUG:root:loss:7.821844577789307 reconloss:5.293902397155762 KLD:0.0013259077677503228 actloss:0.6960261464118958 personalityloss:1.6139817237854004 vocabvqloss0.21660825610160828 grad:0.4310846212727335
DEBUG:root:loss:7.686067581176758 reconloss:5.180566310882568 KLD:0.0009410573984496295 actloss:0.6807305216789246 personalityloss:1.6254277229309082 vocabvqloss0.19840186834335327 grad:0.5139350543654341
…
