…
lr : 0.001
lr_decay : 1.0
batch_size : 128
dropout_rate : 0.0
epoch_num : 100
cuda : True
early_stop_count : 30
vocab_size : None
remove_slot_value : False
encoder_layer_num : 1
beam_search : False
beam_size : 10
beam_len_bonus : 0.5
teacher_force : 50
glove_path : ./data/glove.840B.300d.txt
model_path : ./models/controlled_CVAE_e2e_EL1.pkl
result_path : ./results/controlled_CVAE_e2e_EL1TMT82.csv
vocab_emb : ./vocabs/embedding_e2e.npy
vocab_path : ./vocabs/e2e.p

DEBUG:root:Device: 2
INFO:root:total trainable params: 6067035
INFO:root:Controlled_CVAE(
  (encoder): SimpleDynamicEncoder(
    (embedding): Embedding(2949, 300)
    (gru): GRU(300, 300, bidirectional=True)
  )
  (vocab_vq_vae): Vocab_VectorQuantizer(
    (embedding): Embedding(2949, 300)
  )
  (vae): VAE(
    (fc1): Linear(in_features=336, out_features=336, bias=True)
    (fc21): Linear(in_features=336, out_features=300, bias=True)
    (fc22): Linear(in_features=336, out_features=300, bias=True)
    (fc3): Linear(in_features=300, out_features=336, bias=True)
    (fc4): Linear(in_features=336, out_features=336, bias=True)
  )
  (decoder): Condition_RNN_Decoder(
    (emb): Embedding(2949, 300)
    (rnn): GRU(336, 300)
    (emb_proj): Linear(in_features=300, out_features=300, bias=True)
    (proj): Linear(in_features=300, out_features=2949, bias=True)
  )
  (act_predictor): MultiLabel_Classification(
    (linear1): Linear(in_features=300, out_features=150, bias=True)
    (linear2): Linear(in_features=150, out_features=36, bias=True)
  )
  (act_mlp): MLP(
    (linear1): Linear(in_features=600, out_features=1200, bias=True)
    (linear2): Linear(in_features=1200, out_features=300, bias=True)
  )
  (dec_loss): NLLLoss()
)
INFO:root:embedding.  mean: 0.000694  std 0.504608
DEBUG:root:bucket 1 instance 42061
DEBUG:root:loss:8.873005867004395 reconloss:8.001131057739258 KLD:0.0030538204591721296 actloss:0.6893470883369446  grad:0.40866477139939833
DEBUG:root:loss:8.717074394226074 reconloss:7.8956618309021 KLD:0.0018446723697707057 actloss:0.6722707748413086  grad:0.4210250579278078
…
