…
encoder_layer_num : 1
beam_search : True
beam_size : 10
beam_len_bonus : 0.5
teacher_force : 50
slot_max_ts : 29
text_max_ts : 62
personality_size : 5
act_size : 8
glove_path : ./data/glove.840B.300d.txt
model_path : ./models/controlled_VQVAE_personage_GRU_delex_CB512EL1.pkl
result_path : ./results/controlled_VQVAE_personage_GRU_delex_CB512EL1TMT62_beam10.csv
vocab_emb : ./vocabs/embedding_personage_delex.npy
vocab_path : ./vocabs/personage_delex.p

DEBUG:root:Device: 0
INFO:root:total trainable params: 11036761
INFO:root:Controlled_VQVAE(
  (vocab_vq_vae): Vocab_VectorQuantizer(
    (embedding): Embedding(198, 300)
  )
  (vae_encoder): LSTMDynamicEncoder(
    (embedding): Embedding(198, 300)
    (lstm): LSTM(300, 300, bidirectional=True)
  )
  (encoder): LSTMDynamicEncoder(
    (embedding): Embedding(198, 300)
    (lstm): LSTM(300, 300, bidirectional=True)
  )
  (act_vq_vae): VectorQuantizer(
    (_embedding): Embedding(512, 300)
  )
  (personality_vq_vae): VectorQuantizer(
    (_embedding): Embedding(512, 300)
  )
  (decoder): Attn_RNN_Decoder(
    (emb): Embedding(198, 300)
    (a_attn): Attn(
      (attn): Linear(in_features=1200, out_features=600, bias=True)
    )
    (p_attn): Attn(
      (attn): Linear(in_features=1200, out_features=600, bias=True)
    )
    (rnn): GRU(1500, 600)
    (emb_proj): Linear(in_features=600, out_features=300, bias=True)
    (proj): Linear(in_features=300, out_features=198, bias=True)
  )
  (act_predictor): MultiLabel_Classification(
    (linear1): Linear(in_features=300, out_features=150, bias=True)
    (linear2): Linear(in_features=150, out_features=8, bias=True)
  )
  (personality_predictor): MultiClass_Classification(
    (linear1): Linear(in_features=300, out_features=150, bias=True)
    (linear2): Linear(in_features=150, out_features=5, bias=True)
  )
  (act_mlp): MLP(
    (linear1): Linear(in_features=600, out_features=1200, bias=True)
    (linear2): Linear(in_features=1200, out_features=300, bias=True)
  )
  (personality_mlp): MLP(
    (linear1): Linear(in_features=600, out_features=1200, bias=True)
    (linear2): Linear(in_features=1200, out_features=300, bias=True)
  )
  (dec_loss): NLLLoss()
)
INFO:root:embedding.  mean: -0.002344  std 0.627239
DEBUG:root:bucket 1 instance 79879
DEBUG:root:loss:10.001256942749023 reconloss:5.287420272827148 actloss:0.6940972805023193 personalityloss:1.6091415882110596 actvqloss:0.0009815656812861562 personalityvqloss:0.001013522851280868 grad:0.5493420642894226
DEBUG:root:loss:9.801209449768066 reconloss:5.07117223739624 actloss:0.6936428546905518 personalityloss:1.6121259927749634 actvqloss:0.004561636131256819 personalityvqloss:0.0034833699464797974 grad:0.7210393828991896
…
