…
vocab_size : None
remove_slot_value : False
encoder_layer_num : 3
beam_search : False
beam_size : 10
beam_len_bonus : 0.5
teacher_force : 50
slot_max_ts : 29
text_max_ts : 62
personality_size : 5
act_size : 8
glove_path : ./data/glove.840B.300d.txt
model_path : ./models/focused_VQVAE_personage_LSTM_CB1024EL3.pkl
result_path : ./results/focused_VQVAE_personage_LSTM_CB1024EL3TMT62.csv
vocab_emb : ./vocabs/embedding_personage.npy
vocab_path : ./vocabs/personage.p

DEBUG:root:Device: 2
INFO:root:total trainable params: 21328565
INFO:root:Focused_VQVAE(
  (vae_encoder): LSTMDynamicEncoder(
    (embedding): Embedding(202, 300)
    (lstm): LSTM(300, 300, num_layers=3, bidirectional=True)
  )
  (encoder): LSTMDynamicEncoder(
    (embedding): Embedding(202, 300)
    (lstm): LSTM(300, 300, num_layers=3, bidirectional=True)
  )
  (act_vq_vae): VectorQuantizer(
    (_embedding): Embedding(1024, 300)
  )
  (personality_vq_vae): VectorQuantizer(
    (_embedding): Embedding(1024, 300)
  )
  (decoder): Attn_RNN_Decoder(
    (emb): Embedding(202, 300)
    (a_attn): Attn(
      (attn): Linear(in_features=1200, out_features=600, bias=True)
    )
    (p_attn): Attn(
      (attn): Linear(in_features=1200, out_features=600, bias=True)
    )
    (rnn): LSTM(1500, 600)
    (emb_proj): Linear(in_features=600, out_features=300, bias=True)
    (proj): Linear(in_features=300, out_features=202, bias=True)
  )
  (act_predictor): MultiLabel_Classification(
    (linear1): Linear(in_features=300, out_features=150, bias=True)
    (linear2): Linear(in_features=150, out_features=8, bias=True)
  )
  (personality_predictor): MultiClass_Classification(
    (linear1): Linear(in_features=300, out_features=150, bias=True)
    (linear2): Linear(in_features=150, out_features=5, bias=True)
  )
  (act_mlp): MLP(
    (linear1): Linear(in_features=600, out_features=1200, bias=True)
    (linear2): Linear(in_features=1200, out_features=300, bias=True)
  )
  (personality_mlp): MLP(
    (linear1): Linear(in_features=600, out_features=1200, bias=True)
    (linear2): Linear(in_features=1200, out_features=300, bias=True)
  )
  (dec_loss): NLLLoss()
)
INFO:root:embedding.  mean: -0.002158  std 0.614459
DEBUG:root:bucket 1 instance 79879
DEBUG:root:loss:7.607910633087158 reconloss:5.299596786499023 actloss:0.6911336779594421 personalityloss:1.613805890083313 actvqloss:0.0017189980717375875 personalityvqloss:0.0016556981718167663 grad:0.3365731375290977
DEBUG:root:loss:7.521581649780273 reconloss:5.216981410980225 actloss:0.6902802586555481 personalityloss:1.6033278703689575 actvqloss:0.007054110988974571 personalityvqloss:0.003937906119972467 grad:0.3794369594431242
…
