…
dropout_rate : 0.0
epoch_num : 100
cuda : True
early_stop_count : 30
vocab_size : None
remove_slot_value : False
encoder_layer_num : 3
beam_search : False
beam_size : 10
beam_len_bonus : 0.5
teacher_force : 50
glove_path : ./data/glove.840B.300d.txt
model_path : ./models/controlled_VQVAE_e2e_LSTM_CB2046EL3CC0d95.pkl
result_path : ./results/controlled_VQVAE_e2e_LSTM_CB2046EL3CC0d95TMT82.csv
vocab_emb : ./vocabs/embedding_e2e.npy
vocab_path : ./vocabs/e2e.p

DEBUG:root:Device: 0
INFO:root:total trainable params: 33132143
INFO:root:Controlled_VQVAE(
  (vae_encoder): LSTMDynamicEncoder(
    (embedding): Embedding(2949, 300)
    (lstm): LSTM(300, 300, num_layers=3, bidirectional=True)
  )
  (vocab_vq_vae): Vocab_VectorQuantizer(
    (embedding): Embedding(2949, 300)
  )
  (encoder): LSTMDynamicEncoder(
    (embedding): Embedding(2949, 300)
    (lstm): LSTM(300, 300, num_layers=3, bidirectional=True)
  )
  (act_vq_vae): VectorQuantizer(
    (_embedding): Embedding(2046, 300)
  )
  (value_vq_vae): VectorQuantizer(
    (_embedding): Embedding(2046, 300)
  )
  (decoder): Attn_RNN_Decoder(
    (emb): Embedding(2949, 300)
    (a_attn): Attn(
      (attn): Linear(in_features=1200, out_features=600, bias=True)
    )
    (p_attn): Attn(
      (attn): Linear(in_features=1200, out_features=600, bias=True)
    )
    (rnn): LSTM(1500, 600)
    (emb_proj): Linear(in_features=600, out_features=300, bias=True)
    (proj): Linear(in_features=300, out_features=2949, bias=True)
  )
  (act_predictor): MultiLabel_Classification(
    (linear1): Linear(in_features=300, out_features=150, bias=True)
    (linear2): Linear(in_features=150, out_features=8, bias=True)
  )
  (act_mlp): MLP(
    (linear1): Linear(in_features=600, out_features=1200, bias=True)
    (linear2): Linear(in_features=1200, out_features=300, bias=True)
  )
  (value_predictor): ModuleList(
    (0): MultiClass_Classification(
      (linear1): Linear(in_features=300, out_features=150, bias=True)
      (linear2): Linear(in_features=150, out_features=3, bias=True)
    )
    (1): MultiClass_Classification(
      (linear1): Linear(in_features=300, out_features=150, bias=True)
      (linear2): Linear(in_features=150, out_features=7, bias=True)
    )
    (2): MultiClass_Classification(
      (linear1): Linear(in_features=300, out_features=150, bias=True)
      (linear2): Linear(in_features=150, out_features=4, bias=True)
    )
    (3): MultiClass_Classification(
      (linear1): Linear(in_features=300, out_features=150, bias=True)
      (linear2): Linear(in_features=150, out_features=3, bias=True)
    )
    (4): MultiClass_Classification(
      (linear1): Linear(in_features=300, out_features=150, bias=True)
      (linear2): Linear(in_features=150, out_features=8, bias=True)
    )
    (5): MultiClass_Classification(
      (linear1): Linear(in_features=300, out_features=150, bias=True)
      (linear2): Linear(in_features=150, out_features=2, bias=True)
    )
    (6): MultiClass_Classification(
      (linear1): Linear(in_features=300, out_features=150, bias=True)
      (linear2): Linear(in_features=150, out_features=2, bias=True)
    )
    (7): MultiClass_Classification(
      (linear1): Linear(in_features=300, out_features=150, bias=True)
      (linear2): Linear(in_features=150, out_features=7, bias=True)
    )
  )
  (value_mlp): ModuleList(
    (0): MLP(
      (linear1): Linear(in_features=600, out_features=1200, bias=True)
      (linear2): Linear(in_features=1200, out_features=300, bias=True)
    )
    (1): MLP(
      (linear1): Linear(in_features=600, out_features=1200, bias=True)
      (linear2): Linear(in_features=1200, out_features=300, bias=True)
    )
    (2): MLP(
      (linear1): Linear(in_features=600, out_features=1200, bias=True)
      (linear2): Linear(in_features=1200, out_features=300, bias=True)
    )
    (3): MLP(
      (linear1): Linear(in_features=600, out_features=1200, bias=True)
      (linear2): Linear(in_features=1200, out_features=300, bias=True)
    )
    (4): MLP(
      (linear1): Linear(in_features=600, out_features=1200, bias=True)
      (linear2): Linear(in_features=1200, out_features=300, bias=True)
    )
    (5): MLP(
      (linear1): Linear(in_features=600, out_features=1200, bias=True)
      (linear2): Linear(in_features=1200, out_features=300, bias=True)
    )
    (6): MLP(
      (linear1): Linear(in_features=600, out_features=1200, bias=True)
      (linear2): Linear(in_features=1200, out_features=300, bias=True)
    )
    (7): MLP(
      (linear1): Linear(in_features=600, out_features=1200, bias=True)
      (linear2): Linear(in_features=1200, out_features=300, bias=True)
    )
  )
  (dec_loss): NLLLoss()
)
INFO:root:embedding.  mean: 0.000694  std 0.504608
DEBUG:root:bucket 1 instance 42061
DEBUG:root:loss:13.542961120605469 reconloss:7.993922710418701 actloss:0.6973421573638916 otherloss:1.3653419017791748 actvqloss:0.0027694436721503735 othervqloss:0.002980461809784174 grad:0.48368642554696584
DEBUG:root:loss:13.308574676513672 reconloss:7.9163360595703125 actloss:0.6957646608352661 otherloss:1.363365650177002 actvqloss:0.008371040225028992 othervqloss:0.010867765173316002 grad:0.538796390862867
…
