…
epoch_num : 100
cuda : True
early_stop_count : 30
vocab_size : None
remove_slot_value : False
encoder_layer_num : 3
beam_search : False
beam_size : 10
beam_len_bonus : 0.5
teacher_force : 50
glove_path : ./data/glove.840B.300d.txt
model_path : ./models/focused_VQVAE_e2e_LSTM_VCBTrue_VLFalse_CB512EL3BS128Stop.pkl
result_path : ./results/focused_VQVAE_e2e_LSTM_VCBTrue_VLFalse_CB512EL3BS128StopTMT82.csv
vocab_emb : ./vocabs/embedding_e2e.npy
vocab_path : ./vocabs/e2e.p

DEBUG:root:Device: 1
INFO:root:total trainable params: 32942843
INFO:root:Focused_VQVAE(
  (vae_encoder): LSTMDynamicEncoder(
    (embedding): Embedding(2949, 300)
    (lstm): LSTM(300, 300, num_layers=3, bidirectional=True)
  )
  (encoder): LSTMDynamicEncoder(
    (embedding): Embedding(2949, 300)
    (lstm): LSTM(300, 300, num_layers=3, bidirectional=True)
  )
  (act_vq_vae): VectorQuantizer(
    (_embedding): Embedding(512, 300)
  )
  (value_vq_vae): Vocab_VectorQuantizer(
    (_embedding): Embedding(2949, 300)
  )
  (decoder): Attn_RNN_Decoder(
    (emb): Embedding(2949, 300)
    (a_attn): Attn(
      (attn): Linear(in_features=1200, out_features=600, bias=True)
    )
    (p_attn): Attn(
      (attn): Linear(in_features=1200, out_features=600, bias=True)
    )
    (rnn): LSTM(1500, 600)
    (emb_proj): Linear(in_features=600, out_features=300, bias=True)
    (proj): Linear(in_features=300, out_features=2949, bias=True)
  )
  (act_predictor): MultiLabel_Classification(
    (linear1): Linear(in_features=300, out_features=150, bias=True)
    (linear2): Linear(in_features=150, out_features=8, bias=True)
  )
  (act_mlp): MLP(
    (linear1): Linear(in_features=600, out_features=1200, bias=True)
    (linear2): Linear(in_features=1200, out_features=300, bias=True)
  )
  (value_predictor): ModuleList(
    (0): MultiClass_Classification(
      (linear1): Linear(in_features=300, out_features=150, bias=True)
      (linear2): Linear(in_features=150, out_features=3, bias=True)
    )
    (1): MultiClass_Classification(
      (linear1): Linear(in_features=300, out_features=150, bias=True)
      (linear2): Linear(in_features=150, out_features=7, bias=True)
    )
    (2): MultiClass_Classification(
      (linear1): Linear(in_features=300, out_features=150, bias=True)
      (linear2): Linear(in_features=150, out_features=4, bias=True)
    )
    (3): MultiClass_Classification(
      (linear1): Linear(in_features=300, out_features=150, bias=True)
      (linear2): Linear(in_features=150, out_features=3, bias=True)
    )
    (4): MultiClass_Classification(
      (linear1): Linear(in_features=300, out_features=150, bias=True)
      (linear2): Linear(in_features=150, out_features=8, bias=True)
    )
    (5): MultiClass_Classification(
      (linear1): Linear(in_features=300, out_features=150, bias=True)
      (linear2): Linear(in_features=150, out_features=2, bias=True)
    )
    (6): MultiClass_Classification(
      (linear1): Linear(in_features=300, out_features=150, bias=True)
      (linear2): Linear(in_features=150, out_features=2, bias=True)
    )
    (7): MultiClass_Classification(
      (linear1): Linear(in_features=300, out_features=150, bias=True)
      (linear2): Linear(in_features=150, out_features=7, bias=True)
    )
  )
  (value_mlp): ModuleList(
    (0): MLP(
      (linear1): Linear(in_features=600, out_features=1200, bias=True)
      (linear2): Linear(in_features=1200, out_features=300, bias=True)
    )
    (1): MLP(
      (linear1): Linear(in_features=600, out_features=1200, bias=True)
      (linear2): Linear(in_features=1200, out_features=300, bias=True)
    )
    (2): MLP(
      (linear1): Linear(in_features=600, out_features=1200, bias=True)
      (linear2): Linear(in_features=1200, out_features=300, bias=True)
    )
    (3): MLP(
      (linear1): Linear(in_features=600, out_features=1200, bias=True)
      (linear2): Linear(in_features=1200, out_features=300, bias=True)
    )
    (4): MLP(
      (linear1): Linear(in_features=600, out_features=1200, bias=True)
      (linear2): Linear(in_features=1200, out_features=300, bias=True)
    )
    (5): MLP(
      (linear1): Linear(in_features=600, out_features=1200, bias=True)
      (linear2): Linear(in_features=1200, out_features=300, bias=True)
    )
    (6): MLP(
      (linear1): Linear(in_features=600, out_features=1200, bias=True)
      (linear2): Linear(in_features=1200, out_features=300, bias=True)
    )
    (7): MLP(
      (linear1): Linear(in_features=600, out_features=1200, bias=True)
      (linear2): Linear(in_features=1200, out_features=300, bias=True)
    )
  )
  (dec_loss): NLLLoss()
)
INFO:root:embedding.  mean: 0.000694  std 0.504608
DEBUG:root:bucket 1 instance 42061
DEBUG:root:loss:27.32091522216797 reconloss:8.001482009887695 actloss:0.6952781081199646 otherloss:11.09744644165039 actvqloss:0.0018022047588601708 othervqloss:7.524907112121582 grad:6.468732137157916
DEBUG:root:loss:25.66832733154297 reconloss:7.5654096603393555 actloss:0.6921219825744629 otherloss:10.306156158447266 actvqloss:0.00902007520198822 othervqloss:7.095620155334473 grad:4.547256705859851
…
