…
lr : 0.001
lr_decay : 1.0
batch_size : 128
dropout_rate : 0.0
epoch_num : 100
cuda : True
early_stop_count : 30
vocab_size : None
remove_slot_value : False
encoder_layer_num : 1
beam_search : False
beam_size : 10
beam_len_bonus : 0.5
teacher_force : 50
glove_path : ./data/glove.840B.300d.txt
model_path : ./models/controlled_CVAE_e2e_EL1.pkl
result_path : ./results/controlled_CVAE_e2e_EL1TMT82.csv
vocab_emb : ./vocabs/embedding_e2e.npy
vocab_path : ./vocabs/e2e.p

DEBUG:root:Device: 0
INFO:root:total trainable params: 6086895
INFO:root:Controlled_CVAE(
  (encoder): SimpleDynamicEncoder(
    (embedding): Embedding(2949, 300)
    (gru): GRU(300, 300, bidirectional=True)
  )
  (vocab_vq_vae): Vocab_VectorQuantizer(
    (embedding): Embedding(2949, 300)
  )
  (vae): VAE(
    (fc1): Linear(in_features=342, out_features=342, bias=True)
    (fc21): Linear(in_features=342, out_features=300, bias=True)
    (fc22): Linear(in_features=342, out_features=300, bias=True)
    (fc3): Linear(in_features=300, out_features=342, bias=True)
    (fc4): Linear(in_features=342, out_features=342, bias=True)
  )
  (decoder): Condition_RNN_Decoder(
    (emb): Embedding(2949, 300)
    (rnn): GRU(342, 300)
    (emb_proj): Linear(in_features=300, out_features=300, bias=True)
    (proj): Linear(in_features=300, out_features=2949, bias=True)
  )
  (act_predictor): MultiLabel_Classification(
    (linear1): Linear(in_features=300, out_features=150, bias=True)
    (linear2): Linear(in_features=150, out_features=42, bias=True)
  )
  (act_mlp): MLP(
    (linear1): Linear(in_features=600, out_features=1200, bias=True)
    (linear2): Linear(in_features=1200, out_features=300, bias=True)
  )
  (dec_loss): NLLLoss()
)
INFO:root:embedding.  mean: 0.000694  std 0.504608
DEBUG:root:bucket 1 instance 42061
DEBUG:root:loss:8.854394912719727 reconloss:7.992033004760742 KLD:0.0026220816653221846 actloss:0.6875348687171936 vocabvqloss0.17220494151115417 grad:0.4236660964980601
DEBUG:root:loss:8.685317039489746 reconloss:7.868480682373047 KLD:0.001870771637186408 actloss:0.6672785878181458 vocabvqloss0.14768707752227783 grad:0.47661597069562206
…
