…
epoch_num : 100
cuda : True
early_stop_count : 30
vocab_size : None
remove_slot_value : True
encoder_layer_num : 1
beam_search : False
beam_size : 10
beam_len_bonus : 0.5
teacher_force : 50
act_size : 8
glove_path : ./data/glove.840B.300d.txt
condition_size : 256
model_path : ./models/controlled_CVAE_e2e_delex_EL1.pkl
result_path : ./results/controlled_CVAE_e2e_delex_EL1TMT82.csv
vocab_emb : ./vocabs/embedding_e2e_delex.npy
vocab_path : ./vocabs/e2e_delex.p

DEBUG:root:Device: 2
INFO:root:total trainable params: 6879878
INFO:root:Controlled_CVAE(
  (vocab_vq_vae): Vocab_VectorQuantizer(
    (embedding): Embedding(2980, 300)
  )
  (encoder): SimpleDynamicEncoder(
    (embedding): Embedding(2980, 300)
    (gru): GRU(300, 300, bidirectional=True)
  )
  (vae): VAE(
    (fc1): Linear(in_features=556, out_features=556, bias=True)
    (fc21): Linear(in_features=556, out_features=300, bias=True)
    (fc22): Linear(in_features=556, out_features=300, bias=True)
    (fc3): Linear(in_features=300, out_features=556, bias=True)
    (fc4): Linear(in_features=556, out_features=556, bias=True)
  )
  (decoder): Condition_RNN_Decoder(
    (emb): Embedding(2980, 300)
    (rnn): GRU(556, 300)
    (emb_proj): Linear(in_features=300, out_features=300, bias=True)
    (proj): Linear(in_features=300, out_features=2980, bias=True)
  )
  (act_predictor): MultiLabel_Classification(
    (linear1): Linear(in_features=300, out_features=150, bias=True)
    (linear2): Linear(in_features=150, out_features=8, bias=True)
  )
  (act_mlp): MLP(
    (linear1): Linear(in_features=600, out_features=1200, bias=True)
    (linear2): Linear(in_features=1200, out_features=300, bias=True)
  )
  (dec_loss): NLLLoss()
)
INFO:root:2557 known embedding. old mean: -0.000000 new mean 0.000945, old std 0.000194 new std 0.358756
DEBUG:root:bucket 1 instance 42061
DEBUG:root:loss:8.727333068847656 reconloss:8.010567665100098 KLD:0.0010688633192330599 actloss:0.6926077604293823 vocabvqloss0.023088159039616585 grad:0.34059601313273996
DEBUG:root:loss:8.63846492767334 reconloss:7.938266754150391 KLD:0.0012052484089508653 actloss:0.6822867393493652 vocabvqloss0.016705822199583054 grad:0.36996638081052646
…
